ppo_model_checkpoint/pytorch_model.bin (torch, 3580 bytes, 1 tensors)

v_head.summary.weight f4 [1, 512]
00000000: f8e8 7dbd 282f 153d 486b 363c 6980 2a3c
00000010: afc4 1d3c bed4 aa3c cf07 92bc ae87 d03c
00000020: 5331 653d a436 6fbc 1755 06bd 319c f6bc
00000030: 7ee1 a83c d2b8 dabc 94bc 6ebd af27 533c
00000040: ecd7 efbc 2857 11bc eb11 99bb 0cda 143d
00000050: 292f 283c 004c 6d3d 2419 2a3d 4f5d 353d
00000060: bf4a bbbb 98f8 d9bc b740 0f3d e67a ab3b
00000070: e92f 29bd 1596 43bc 8602 c5bc 6d37 e93c
00000080: 3f18 2c3d ab84 99bc 9f40 0e3d d90a cdbc
00000090: 0852 80bb 8365 d03c 5194 38bd 3472 de3c
000000a0: c66a f33c 58c1 7abc 9f5d 553c 88fc 483b
000000b0: 7738 4d3b fa7c 0fbd a581 003d a8c5 c8bc
000000c0: 5df0 283d 403b c13b d085 b2bb 98bd 6fbd
000000d0: b16c ee39 f30a 57bc 2789 08bd aeb4 48bd
000000e0: ce48 be3c 89ce c0bc d1d4 0dbd 85e3 51bc
000000f0: 3b95 f4bc 7349 033c b1c0 4f3d 4381 513d
00000100: 949a 043d 648e 55bd d86d 543d a246 57bd
00000110: 411b b4bc 94d6 123c 0fc7 a3bc 8e91 7abc
00000120: e79f e5bc 5e4a 093c c66a a1bc 1086 05bd
00000130: 0557 cf3c 09f0 25bc b66c f4bc 8c3b 003d
00000140: 9661 153c e8da cf3a 2f48 483c 05ef b9bb
00000150: e048 00bd f9a4 1c3d 82cb 0d3d c8bc 553d
00000160: 8ae9 103c ef07 5f3c 35f0 3abd 8345 e33c
00000170: bba3 49bd 5833 fd3c 9d00 08bd 10db 073d
00000180: 2227 203d 2579 d2bc f735 b43c 4c98 76bc
00000190: 1007 6a3b 37d1 bc3c 4e8c f6bc 0387 c53b
000001a0: a7f7 d63c 481b 8dbc bb1b 8f39 aaaf 8fbc
000001b0: 761b f3ba a924 debb 6c2b 493d 1d3d ef3a
000001c0: 4ed6 99bb 4418 d2bc 4bab b03c f5a9 afbc
000001d0: c767 87bc 442e 423d 9ff7 e0bc 93d3 09bd
000001e0: 00be 4c3d 59bb 473d c31d fe3c 6193 123a
000001f0: 5ad4 1a3d 1f32 5a3d f4dc 2f3d cc79 24bd
00000200: 6b98 9ebc 5493 133c a4d3 513c ef05 cd3c
00000210: 3865 debc d418 0abd bb03 9abc e05b b9bb
00000220: 4ce7 25bd 4d77 4a3d 2158 ee3b 7720 bfbc
00000230: b754 98bb 1f84 e63c d488 2e3d 5ce1 de3c
00000240: 0e5e 543b e339 b23c b3b8 40ba 3510 483d
00000250: c083 863c e42d 83bc 5ee3 063d 8d13 9abc
00000260: 88a6 25bd 3a37 34ba 368e 043d f824 5bbc
00000270: 4368 573c 76de dfbc f08c 8a3b 7be4 583c
00000280: 7186 d33c e6af 103c 8b1b 6dbc 824c 92bc
00000290: faa3 513d 91e9 67bc fdc4 33bc 5536 4bbd
000002a0: 22f6 b33c 259f 823c fec2 153d 8b98 453d
000002b0: d300 4e3c 35f3 dfbc 4cf1 22bd 4ba3 0cb9
000002c0: 7202 15bd c7c4 50bc 88d9 a6bc 9ba1 adbc
000002d0: 4a0c a3bb 6a22 0b3d f5ab 73bc 877d 1bbd
000002e0: 1dfe 30bd 923a f6ba 170f 34bd d0c6 e2bc
000002f0: 76b4 183d 0633 01bc 0d81 ba3c 4f04 8ab8
00000300: ed8e 163d afef 1c3b 3caf c4bc 545d 8f3c
00000310: a9a4 a2bc 0c45 6cbb 63a8 24bd bd86 d6bb
00000320: 10f1 1ebd f195 61bb cec9 af3c 5e1c 783c
00000330: 2d70 e13c 2a73 da3c 11ed c8bc 2507 2abd
00000340: 9a7a 173d cc30 1abc 05f6 ceba fea6 a13c
00000350: 42e1 563c e0c6 9e3b 4444 3c3b 4011 a8bc
00000360: c320 473d 0bd8 213c 89e6 5a3d 0513 9e3c
00000370: fbef 0e3d 3ffc 233c 0b59 223d 39f8 46bc
00000380: 488e 263b 74f7 2dbc 44f7 443d 08ba a33b
00000390: e538 863a 1933 763d 7b67 1e3b 7554 89bb
000003a0: f7ec 223a d35b 9a3c 1b85 1c3d 6a27 433d
000003b0: 63ed 97bc 385c 55bb 78b7 3f3c dbe2 b1ba
000003c0: 0b06 c93c 4812 53bb 4bd1 02bc fed1 f4bc
000003d0: 39b3 d7bc 4d5e e23c cab7 d9ba 1f29 10bd
000003e0: f959 6b3d 584d 8fbc 53ff 54bd 64f2 603d
000003f0: d53e 9c3c bbfe 603a 3032 03bb 118f 463c
-0.061989754 0.036421925 0.011133976 0.010406592 0.009629413 0.020853397 -0.017825989 0.025455322
0.055955242 -0.01460043 -0.03279599 -0.030103775 0.020615336 -0.026699457 -0.05828531 0.012887879
-0.029277764 -0.008870877 -0.0046713254 0.03634076 0.01026515 0.057933807 0.041527882 0.04427844
-0.0057156975 -0.026607797 0.034973826 0.0052331565 -0.041305456 -0.011937638 -0.024049055 0.028468812
0.04201531 -0.018740019 0.034729596 -0.025029587 -0.003916029 0.02543903 -0.04506332 0.027154066
0.029714 -0.015304886 0.013022809 0.0030668098 0.0031314173 -0.035031296 0.03137364 -0.024508312
0.041244853 0.0058969557 -0.0054480806 -0.05853042 0.0004547588 -0.013125169 -0.033333924 -0.049000435
0.023228075 -0.023535984 -0.034626786 -0.012810593 -0.029856315 0.008013117 0.050720874 0.051148664
0.03237398 -0.052137747 0.051862568 -0.052557595 -0.021985652 0.008962292 -0.01999238 -0.015293492
-0.028030349 0.008379547 -0.019704234 -0.032598555 0.025310049 -0.01012803 -0.029836994 0.03130679
0.009117505 0.0015858086 0.012224241 -0.0056742453 -0.0313195 0.038243268 0.03461791 0.05218199
0.008844743 0.013612731 -0.045639236 0.027743107 -0.04922841 0.030908272 -0.03320371 0.0331679
0.03909982 -0.025692532 0.021998389 -0.015050959 0.0035709776 0.02304898 -0.0300962 0.0060280575
0.026241137 -0.017224923 0.00027295746 -0.017539818 -0.0018547613 -0.0067792726 0.049113676 0.0018252466
-0.0046947366 -0.025646336 0.021566054 -0.021443347 -0.016528977 0.047407404 -0.027461825 -0.03364904
0.049985886 0.048762653 0.03102005 0.0005591419 0.03780017 0.053270455 0.042935327 -0.040155217
-0.019359788 0.009007294 0.012806807 0.025027243 -0.027147874 -0.033715084 -0.018800607 -0.0056567043
-0.040503785 0.04943018 0.0072736894 -0.02333091 -0.0046487707 0.028139172 0.04261096 0.02720707
0.0032404694 0.021756118 -0.0007351741 0.04884358 0.016420245 -0.016013093 0.032931678 -0.01880815
-0.04044202 -0.00068746845 0.032362185 -0.013375513 0.0131474165 -0.027327757 0.004228227 0.013238068
0.025820943 0.008831 -0.014471899 -0.017858747 0.05118177 -0.014154808 -0.010972259 -0.049612362
0.021967951 0.015945027 0.036562912 0.04824118 0.012573439 -0.02733765 -0.0397809 -0.00013412272
-0.036379285 -0.012742228 -0.020367399 -0.021195224 -0.00497583 0.033968367 -0.014872541 -0.03796151
-0.04321109 -0.0018785766 -0.043959703 -0.027682692 0.037281476 -0.0078857 0.022766614 -6.581155e-05
0.0367574 0.0023946573 -0.02400934 0.017500557 -0.019853907 -0.0036051897 -0.04019965 -0.006546824
-0.038804114 -0.0034421647 0.021458533 0.015143482 0.02751931 0.026666243 -0.024527105 -0.04151072
0.036982156 -0.009411048 -0.0015789872 0.019732948 0.013115229 0.004845485 0.0028727213 -0.020516038
0.04861523 0.009878169 0.05344251 0.019296179 0.034896832 0.010008871 0.0396357 -0.012144142
0.0025414396 -0.010618079 0.048087373 0.004996542 0.0010240345 0.060107324 0.0024170566 -0.0041909763
0.000621512 0.018842613 0.038212877 0.04764501 -0.018545812 -0.0032556187 0.011701457 -0.0013571637
0.024539014 -0.0032206941 -0.00798447 -0.029885288 -0.026330577 0.027632857 -0.001661056 -0.035195466
0.05745885 -0.017492935 -0.05200131 0.05491866 0.01907293 0.00085828797 -0.0020018928 0.012119071
